…
2026-01-18 11:30:28,060 INFO: Training statistics:
	Number of train images: 6000
	Dataset enlarge ratio: 1
	Batch size per gpu: 32
	World size (gpu number): 2
	Require iter number per epoch: 94
	Total epochs: 3192; iters: 300000.
2026-01-18 11:30:28,069 INFO: Dataset [ImageTestDataset] - Turb is built.
2026-01-18 11:30:28,069 INFO: Number of val images/folders in Turb: 3000
2026-01-18 11:30:28,108 INFO: Network [FastTurbNet] is created.
2026-01-18 11:30:28,610 INFO: Network: DistributedDataParallel - FastTurbNet, with parameters: 4,167,471
2026-01-18 11:30:28,610 INFO: FastTurbNet(
  (project_in): Sequential(
    (0): Conv2d(3, 14, kernel_size=(3, 3), stride=(1, 1), padding=(1, 1))
    (1): ConvDown(
      (down): Conv2d(14, 14, kernel_size=(3, 3), stride=(2, 2), padding=(1, 1))
    )
  )
  (project_out): Sequential(
    (0): Conv2d(14, 12, kernel_size=(1, 1), stride=(1, 1))
    (1): PixelShuffle(upscale_factor=2)
  )
  (encoder1): Sequential(
    (0): SRBlock(
      (norm): DynamicTanh()
      (atten): GateAttention(
        (conv1): Conv2d(14, 28, kernel_size=(1, 1), stride=(1, 1))
        (conv2): Conv2d(28, 28, kernel_size=(3, 3), stride=(1, 1), padding=(1, 1))
        (avg): AdaptiveAvgPool2d(output_size=(1, 1))
        (conv3): Conv2d(14, 14, kernel_size=(1, 1), stride=(1, 1))
        (conv4): Conv2d(14, 14, kernel_size=(1, 1), stride=(1, 1))
      )
      (ffn): GateFFN(
        (conv1): Conv2d(14, 28, kernel_size=(1, 1), stride=(1, 1))
        (conv2): Conv2d(14, 14, kernel_size=(1, 1), stride=(1, 1))
      )
    )
  )
  (encoder2): Sequential(
    (0): SRBlock(
      (norm): DynamicTanh()
      (atten): GateAttention(
        (conv1): Conv2d(28, 56, kernel_size=(1, 1), stride=(1, 1))
        (conv2): Conv2d(56, 56, kernel_size=(3, 3), stride=(1, 1), padding=(1, 1))
        (avg): AdaptiveAvgPool2d(output_size=(1, 1))
        (conv3): Conv2d(28, 28, kernel_size=(1, 1), stride=(1, 1))
        (conv4): Conv2d(28, 28, kernel_size=(1, 1), stride=(1, 1))
      )
      (ffn): GateFFN(
        (conv1): Conv2d(28, 56, kernel_size=(1, 1), stride=(1, 1))
        (conv2): Conv2d(28, 28, kernel_size=(1, 1), stride=(1, 1))
      )
    )
  )
  (encoder3): Sequential(
    (0): SRBlock(
      (norm): DynamicTanh()
      (atten): GateAttention(
        (conv1): Conv2d(56, 112, kernel_size=(1, 1), stride=(1, 1))
        (conv2): Conv2d(112, 112, kernel_size=(3, 3), stride=(1, 1), padding=(1, 1))
        (avg): AdaptiveAvgPool2d(output_size=(1, 1))
        (conv3): Conv2d(56, 56, kernel_size=(1, 1), stride=(1, 1))
        (conv4): Conv2d(56, 56, kernel_size=(1, 1), stride=(1, 1))
      )
      (ffn): GateFFN(
        (conv1): Conv2d(56, 112, kernel_size=(1, 1), stride=(1, 1))
        (conv2): Conv2d(56, 56, kernel_size=(1, 1), stride=(1, 1))
      )
    )
  )
  (encoder4): Sequential(
    (0): SRBlock(
      (norm): DynamicTanh()
      (atten): GateAttention(
        (conv1): Conv2d(112, 224, kernel_size=(1, 1), stride=(1, 1))
        (conv2): Conv2d(224, 224, kernel_size=(3, 3), stride=(1, 1), padding=(1, 1))
        (avg): AdaptiveAvgPool2d(output_size=(1, 1))
        (conv3): Conv2d(112, 112, kernel_size=(1, 1), stride=(1, 1))
        (conv4): Conv2d(112, 112, kernel_size=(1, 1), stride=(1, 1))
      )
      (ffn): GateFFN(
        (conv1): Conv2d(112, 224, kernel_size=(1, 1), stride=(1, 1))
        (conv2): Conv2d(112, 112, kernel_size=(1, 1), stride=(1, 1))
      )
    )
  )
  (decoder1): Sequential(
    (0): SRBlock(
      (norm): DynamicTanh()
      (atten): GateAttention(
        (conv1): Conv2d(112, 224, kernel_size=(1, 1), stride=(1, 1))
        (conv2): Conv2d(224, 224, kernel_size=(3, 3), stride=(1, 1), padding=(1, 1))
        (avg): AdaptiveAvgPool2d(output_size=(1, 1))
        (conv3): Conv2d(112, 112, kernel_size=(1, 1), stride=(1, 1))
        (conv4): Conv2d(112, 112, kernel_size=(1, 1), stride=(1, 1))
      )
      (ffn): GateFFN(
        (conv1): Conv2d(112, 224, kernel_size=(1, 1), stride=(1, 1))
        (conv2): Conv2d(112, 112, kernel_size=(1, 1), stride=(1, 1))
      )
    )
  )
  (decoder2): Sequential(
    (0): SRBlock(
      (norm): DynamicTanh()
      (atten): GateAttention(
        (conv1): Conv2d(56, 112, kernel_size=(1, 1), stride=(1, 1))
        (conv2): Conv2d(112, 112, kernel_size=(3, 3), stride=(1, 1), padding=(1, 1))
        (avg): AdaptiveAvgPool2d(output_size=(1, 1))
        (conv3): Conv2d(56, 56, kernel_size=(1, 1), stride=(1, 1))
        (conv4): Conv2d(56, 56, kernel_size=(1, 1), stride=(1, 1))
      )
      (ffn): GateFFN(
        (conv1): Conv2d(56, 112, kernel_size=(1, 1), stride=(1, 1))
        (conv2): Conv2d(56, 56, kernel_size=(1, 1), stride=(1, 1))
      )
    )
  )
  (decoder3): Sequential(
    (0): SRBlock(
      (norm): DynamicTanh()
      (atten): GateAttention(
        (conv1): Conv2d(28, 56, kernel_size=(1, 1), stride=(1, 1))
        (conv2): Conv2d(56, 56, kernel_size=(3, 3), stride=(1, 1), padding=(1, 1))
        (avg): AdaptiveAvgPool2d(output_size=(1, 1))
        (conv3): Conv2d(28, 28, kernel_size=(1, 1), stride=(1, 1))
        (conv4): Conv2d(28, 28, kernel_size=(1, 1), stride=(1, 1))
      )
      (ffn): GateFFN(
        (conv1): Conv2d(28, 56, kernel_size=(1, 1), stride=(1, 1))
        (conv2): Conv2d(28, 28, kernel_size=(1, 1), stride=(1, 1))
      )
    )
  )
  (decoder4): Sequential(
    (0): SRBlock(
      (norm): DynamicTanh()
      (atten): GateAttention(
        (conv1): Conv2d(14, 28, kernel_size=(1, 1), stride=(1, 1))
        (conv2): Conv2d(28, 28, kernel_size=(3, 3), stride=(1, 1), padding=(1, 1))
        (avg): AdaptiveAvgPool2d(output_size=(1, 1))
        (conv3): Conv2d(14, 14, kernel_size=(1, 1), stride=(1, 1))
        (conv4): Conv2d(14, 14, kernel_size=(1, 1), stride=(1, 1))
      )
      (ffn): GateFFN(
        (conv1): Conv2d(14, 28, kernel_size=(1, 1), stride=(1, 1))
        (conv2): Conv2d(14, 14, kernel_size=(1, 1), stride=(1, 1))
      )
    )
  )
  (mid_layer): Sequential(
    (0): SRBlock(
      (norm): DynamicTanh()
      (atten): GateAttention(
        (conv1): Conv2d(224, 448, kernel_size=(1, 1), stride=(1, 1))
        (conv2): Conv2d(448, 448, kernel_size=(3, 3), stride=(1, 1), padding=(1, 1))
        (avg): AdaptiveAvgPool2d(output_size=(1, 1))
        (conv3): Conv2d(224, 224, kernel_size=(1, 1), stride=(1, 1))
        (conv4): Conv2d(224, 224, kernel_size=(1, 1), stride=(1, 1))
      )
      (ffn): GateFFN(
        (conv1): Conv2d(224, 448, kernel_size=(1, 1), stride=(1, 1))
        (conv2): Conv2d(224, 224, kernel_size=(1, 1), stride=(1, 1))
      )
    )
  )
  (down1): ConvDown(
    (down): Conv2d(14, 28, kernel_size=(3, 3), stride=(2, 2), padding=(1, 1))
  )
  (down2): ConvDown(
    (down): Conv2d(28, 56, kernel_size=(3, 3), stride=(2, 2), padding=(1, 1))
  )
  (down3): ConvDown(
    (down): Conv2d(56, 112, kernel_size=(3, 3), stride=(2, 2), padding=(1, 1))
  )
  (down4): ConvDown(
    (down): Conv2d(112, 224, kernel_size=(3, 3), stride=(2, 2), padding=(1, 1))
  )
  (up1): PixelUp(
    (conv): Conv2d(448, 448, kernel_size=(1, 1), stride=(1, 1))
    (up): PixelShuffle(upscale_factor=2)
  )
  (up2): PixelUp(
    (conv): Conv2d(224, 224, kernel_size=(1, 1), stride=(1, 1))
    (up): PixelShuffle(upscale_factor=2)
  )
  (up3): PixelUp(
    (conv): Conv2d(112, 112, kernel_size=(1, 1), stride=(1, 1))
    (up): PixelShuffle(upscale_factor=2)
  )
  (up4): PixelUp(
    (conv): Conv2d(56, 56, kernel_size=(1, 1), stride=(1, 1))
    (up): PixelShuffle(upscale_factor=2)
  )
)
2026-01-18 11:30:28,611 INFO: Loss [CharbonnierLoss] is created.
2026-01-18 11:30:28,611 INFO: Model [TurbModel] is created.
2026-01-18 11:30:37,143 INFO: Start training from epoch: 0, iter: 0
2026-01-18 11:31:27,928 INFO: [Train-Syn-Turb][epoch:  1, iter:     100, lr:(0.000100,)] [eta: 1 day, 7:05:51, time (data): 0.508 (0.299)] l_pix: 5.1223e-02 
…
